best_grammar_scorer.pth (torch, 64912 bytes, 7 tensors)

model.0.weight f4 [128, 38]
00000000: 9200 fe3d 65e0 093e 18aa 1bbd 4998 183e
00000010: d895 11bd e414 063d 62bf a1bd d21c c33d
00000020: f16f 123e 9ebb f3bd e362 103e 28b8 f83c
00000030: 3e74 f53d e0f9 b33c 7432 a03d 98a1 bbbc
00000040: 350e 003e 086d c43c 1519 9bbd 945e 293d
00000050: fe11 99bd 90d8 9bbc 11f0 86bd 3264 dc3d
00000060: 4220 03be 4529 99bd 5ca0 3bbd abc2 c7bd
00000070: d0da 7a3c 6c11 24be 0d05 163e f41b 0dbe
00000080: c13e 003e 4828 dd3c b8c0 57bd 1a4d cd3d
00000090: e81c cf3c f136 063e d3a0 5e3c 1688 3fbd
000000a0: 722d 463d 36c3 21bd 6284 943d 18f5 183e
000000b0: 9955 cb3d dc1f 87bd ff0a d03d 35e3 0a3d
000000c0: 98ef a53d 3fff c0bd f3ea 26be f41a 6fbd
000000d0: 3969 03be ffb5 0c3e 6eba 2f3d 6022 933d
000000e0: 3b97 533d 1e4f cb3a b927 013e edc8 e2bd
000000f0: 7249 4a3c 0a8c dabd 429d 413d 1289 53bd
00000100: 4283 5c3d 6f77 f1bc 7208 0e3e f9fd bbbd
00000110: cf86 bdbd 9dbb bcbd 82b0 193e 5062 6e3d
00000120: f3c1 233e d9ee 04be 9470 20be d0e0 fdbd
00000130: b47c dfbd f890 863d 3ced 6d3d 5f07 0a3e
00000140: 5c92 abbd 187c e2bd 1046 b03d e449 86bd
00000150: 52a3 c93d 30ad 1dbd ee0c be3d da10 01be
00000160: d6a8 a7bd f093 4a3d bc78 0c3d dc68 29bd
00000170: 2608 c63d 46da e13d 88ec f0bd e35d b1bd
00000180: dd1a 183e c635 60bd c48f 6bbd 52bb 20be
00000190: 0742 bebd f8fb 253d 7868 afbc 2429 f1bd
000001a0: 4060 793b 97f0 e2bd 62ee 0cbe 44f2 b6bd
000001b0: b862 11be 0c8b d3bd bd0c 263e d0ff fa3c
000001c0: 6cc2 4c3d bfee 1abe 10fc ccbd a505 78bd
000001d0: dbd3 9c3c 4ad7 18be af74 a0bd 6017 d4bd
000001e0: 4d1a babb 6377 88bd e0c9 85bc 4605 eebd
000001f0: ab16 efbd 11eb cebd 3941 43bd 7ab4 09be
00000200: 9820 123e 9033 1ebd e619 163e bddd 343d
00000210: ea02 06be bddf d83d 9df2 1cbd a46e 8cbd
00000220: 95f5 02be e8ba 2bbe 31fa 403d 8752 2bbd
00000230: 89e1 673d d1ff 0ebe 774b e93d a099 00be
00000240: c40c 0dbd 66ac e03c 7ae8 9d3d 97c6 fe3d
00000250: a5a9 103e 6062 0abe c524 0d3d c691 9cbd
00000260: 4ef8 c4bc 489d ebbd 3d90 1d3e fdd4 e6bd
00000270: c483 a53d 128d 813d 71f3 703d 2aff a6bd
00000280: 8156 0e3e b354 2b3d 79a1 d93c 2a00 0cbe
00000290: f6ce 793d fffd 93bc 831a a5bd aa0e 153e
000002a0: 4cbc ea3c 0017 abbd ee1b b5bd 3133 c6ba
000002b0: 8abb ac3d 0f45 10bd 3267 cabd c4e2 49bd
000002c0: a09d 02be c440 833d df13 073e 23e6 15be
000002d0: 6947 343d 7b93 b83d ce25 123d 9ff1 52bd
000002e0: 0f8f ba3d e0af bb3d 9b13 893d f6c4 b5bc
000002f0: 6094 16bd e649 c23c f60c 0ebd 0354 2dbd
00000300: ebb6 e03d 29ee 143e 4fb2 b3bc 3146 f8bc
00000310: 922b 093c 3378 70bb 314f 383d eddb 523d
00000320: 9dbb 10be 8a84 5cbd 3d00 123e ddc0 8d3d
00000330: 2b96 0abb a1f6 bbbd 2a08 bfbd efa0 0ebe
00000340: 526d 40bd 8711 793d 9a12 e03d 0bbd a53d
00000350: bebb 0cbe c56d bbbd 266b a2bc bcdd 263e
00000360: 6dc1 f13c 8c53 13bd 79d3 953d c75c 64bd
00000370: 2fac cabd 43d4 fe3d 14a7 8abd 13e0 d8bc
00000380: 3d11 1fbe 8aaf ea3d 160e 043e 8b7e 853d
00000390: 50ce f3bd f6dd 1dbe bbd6 00be c3f4 013e
000003a0: c0fa 923d cae4 113e c341 ba3d 9498 403d
000003b0: fa99 923b 9776 f0bd 6d33 08be 5249 15be
000003c0: 3c94 943d 38ed 96bd d6e1 d9bc 5e03 b3bd
000003d0: d480 c0bc eba7 ddbd c209 dfbd fec0 743d
000003e0: 22c1 2cbd 833d d93d db0d 3cbd 7594 e7bd
000003f0: 920a 0dbd a2e6 94bd ce0e 33bd 0211 18be
0.124024525 0.13464506 -0.03800401 0.14901842 -0.035543293 0.032734767 -0.078978315 0.095269814
0.14300515 -0.119010195 0.14100222 0.03036125 0.11985062 0.021969736 0.07822123 -0.022904202
0.1250542 0.023977771 -0.075731434 0.041349962 -0.07474135 -0.019024163 -0.06588758 0.10761298
-0.12805274 -0.07478575 -0.045807227 -0.09753927 0.015310958 -0.16022271 0.14650364 -0.13780195
0.12523939 0.026996747 -0.052674025 0.100244716 0.025282338 0.13106896 0.013588148 -0.04676064
0.048383184 -0.03949281 0.072518125 0.14937246 0.09928436 -0.065978736 0.10158347 0.033908088
0.081023395 -0.09423684 -0.16300564 -0.058375314 -0.12833108 0.13741301 0.042902403 0.07184291
0.051657896 0.001551125 0.12612809 -0.1107348 0.012346612 -0.106712416 0.047269113 -0.051644392
0.053836115 -0.029475896 0.13870409 -0.09179301 -0.09254228 -0.09215472 0.15008739 0.058199227
0.15991955 -0.12981738 -0.15667945 -0.12396395 -0.10912457 0.06570619 0.058087572 0.13479374
-0.08377525 -0.11058825 0.08607113 -0.06557062 0.09845604 -0.038495243 0.0927981 -0.12604085
-0.081865 0.04945749 0.03429483 -0.041359767 0.09669523 0.110279605 -0.11763865 -0.086604856
0.14853998 -0.054738782 -0.057510152 -0.15696457 -0.092899375 0.0405235 -0.02141212 -0.11775425
0.0038051754 -0.11081045 -0.13762811 -0.08932927 -0.14197814 -0.103292555 0.16215797 0.030639559
0.049990103 -0.15130137 -0.100090146 -0.060552258 0.01914399 -0.14925876 -0.07834756 -0.10356021
-0.005679405 -0.06663396 -0.016331613 -0.116220996 -0.116742454 -0.10103429 -0.047669623 -0.13447753
0.14270246 -0.038623393 0.14658317 0.04415678 -0.13087049 0.1058955 -0.03831731 -0.068570405
-0.12788995 -0.16770518 0.0471136 -0.04182675 0.05661157 -0.13964774 0.11391347 -0.12558603
-0.034436002 0.027425956 0.07710357 0.12440222 0.14127214 -0.1351409 0.034458894 -0.076449916
-0.024044182 -0.115046084 0.15387054 -0.11271093 0.08081773 0.06325735 0.058825914 -0.081541374
0.13900186 0.041828822 0.026566254 -0.13671938 0.06098839 -0.01806545 -0.08061697 0.14556375
0.02865424 -0.08353996 -0.08843218 -0.0015121457 0.08434208 -0.03522211 -0.09882964 -0.049288526
-0.12755442 0.064088374 0.13191174 -0.14638571 0.044013415 0.09012505 0.035680585 -0.05149996
0.091093175 0.09164405 0.066931926 -0.022188645 -0.036762595 0.023716878 -0.03468033 -0.042316448
0.10972389 0.14543976 -0.02193561 -0.030306907 0.008372204 -0.0036692738 0.044997398 0.05147927
-0.14134069 -0.053837337 0.14257903 0.069215514 -0.0021146636 -0.091779 -0.09327729 -0.13928579
-0.046979256 0.06080773 0.10941048 0.08092698 -0.13743493 -0.09151796 -0.019826483 0.16295522
0.029511178 -0.03596835 0.07315726 -0.055752542 -0.09896123 0.124428295 -0.06770149 -0.026474034
-0.1553392 0.11459263 0.12895998 0.06518277 -0.11904585 -0.15416703 -0.12581913 0.12691025
0.07176733 0.14247432 0.09094574 0.04702051 0.004473922 -0.11741369 -0.13300867 -0.1457875
0.07254836 -0.07369465 -0.026596945 -0.087408766 -0.02349893 -0.108230434 -0.10890533 0.059754364
-0.042176373 0.106074356 -0.04591165 -0.11307613 -0.03443391 -0.07270552 -0.04371529 -0.14850238

model.0.bias f4 [128]
00000000: 2b57 073e 0553 f73c 4276 dc3d 8851 53bd
00000010: 6feb 0ebe 4762 d73d 16f4 953d 7b8c 0b3e
00000020: 94e2 7d3d aa52 143c f2cd efbd 3097 23be
00000030: f059 053d ce68 013e 4204 c6bb 0464 71bd
00000040: 3835 a63d 685e aabd 9a7e 813d 5784 01be
00000050: 5476 1cbe c1ec b2bd 5281 b2bc a569 793d
00000060: 4e19 a83d ac80 debd a643 e2bc c247 413d
00000070: 4272 34bd 5a65 69bb 5a16 d73d e527 27bd
00000080: f8f1 9e3d 97f9 063e bc81 5d3d 4822 ecbc
00000090: 885c d2bd bbb8 e7bd 18fc dabc d4da 283d
000000a0: c2b3 b53d 770e f0ba 8371 ff3d 67e8 8fbd
000000b0: 6bfe 1c3d a135 9ebd 1be8 313d 96c3 073e
000000c0: 36dc 4e3d 882c a13b 5e46 5cbd 174a 08be
000000d0: 61a0 e3bd e77d 0ebe 6621 ec3d 9911 97bd
000000e0: 73ff 97bc 33a5 0ebe 0c47 39bd f97b 073e
000000f0: 58ec c63c 66a9 0ebd 25e0 a03d 4823 063e
00000100: 9934 073e 33f8 00be 3138 8e3c 8ffe 0dbe
00000110: 0ae9 f1bd 9362 f53d c858 04be e3e6 96bd
00000120: d253 9f3d 6f7b 1b3e 782e 1bbe 9061 d6bd
00000130: e2f9 6bbd 9fae 003e 1e9d c13d 55b5 dc3d
00000140: 0437 e13d 6401 3fbd 2f75 003e d2fb 2cbc
00000150: 90b6 793c 9a35 30bd 74ef 8c3d 765c 943d
00000160: a8dd 8cbc c13c 123e f215 2cbd 2d64 3f3d
00000170: 15e0 163e 6f9f ae3d 9f3b 85bd e533 8abd
00000180: bb20 003d 0920 9b3b 400e 3b3c 71d0 c93d
00000190: 0b66 803d 2f54 babd 7ea0 07be 880e 173e
000001a0: 9a6a c3bc b6da 6cbd 7302 f4bd 3784 1f3e
000001b0: 16a5 a73d b19c d2bd bf77 0fbe 8370 143e
000001c0: 0246 9b3d 545f f4bc 3e0e 0abe ae86 d53d
000001d0: 3a86 e1bd 2e42 a33d bac5 1dbe 712c 0ebe
000001e0: 7779 25be bebb 1c3e 75f4 163e ef09 14be
000001f0: ef7f f43d 7b14 d6bd 0614 14be 2dec 933d
0.13216846 0.030190954 0.107647434 -0.051591426 -0.13956998 0.10516792 0.07321946 0.13627808
0.06198366 0.009052912 -0.11709203 -0.15975642 0.032556474 0.12637636 -0.006042988 -0.058933273
0.081156194 -0.08318788 0.063229755 -0.1264814 -0.15279514 -0.087365635 -0.02179018 0.060891766
0.082079515 -0.10864386 -0.027620148 0.047187574 -0.044054277 -0.0035613389 0.1050231 -0.04080953
0.077609956 0.13181148 0.054078802 -0.02882494 -0.10271555 -0.113145314 -0.026731536 0.041224316
0.08872177 -0.0018314858 0.124728225 -0.07026749 0.03832857 -0.07725073 0.043434244 0.13258204
0.05050298 0.0049186386 -0.053778045 -0.13309513 -0.11114574 -0.13915215 0.11529808 -0.07376403
-0.018554425 -0.13930206 -0.04523377 0.13230886 0.02428262 -0.03482952 0.07855252 0.13099396
0.13203658 -0.1259468 0.017360779 -0.13866638 -0.11812027 0.11981692 -0.12924492 -0.07368257
0.07779659 0.15183805 -0.15154445 -0.10467827 -0.057611354 0.12566613 0.09453796 0.10776774
0.109968215 -0.046632186 0.12544702 -0.0105580855 0.01524128 -0.04301987 0.068816096 0.07244198
-0.017195538 0.14280988 -0.042013116 0.046726394 0.14733918 0.08526503 -0.065055124 -0.06748179
0.031281214 0.0047340435 0.011416972 0.0985421 0.06269463 -0.09098088 -0.13244817 0.14751637
-0.023854543 -0.057825767 -0.1191453 0.1557778 0.081857845 -0.10283793 -0.14010523 0.14496045
0.07581712 -0.029830612 -0.13481995 0.10426079 -0.1101193 0.07971607 -0.15407458 -0.1388414
-0.16159616 0.15305993 0.1474169 -0.14456914 0.11938464 -0.10453125 -0.14460763 0.07222781

model.3.weight f4 [64, 128]
00000000: de39 4d3d c503 6c3d b025 7e3c e5c0 a13d
00000010: af1f a8bd 154e 0f3d 74e6 0abd 300b 8f3b
00000020: 96b1 793d fad5 8dbd 32a8 1e3d dd09 c1bc
00000030: 8a2c 6a3d 92ea 06bc 0d69 293d f755 ba3d
00000040: 1444 01bd 8a78 bebd 449c 9e3d b273 5fbd
00000050: 53e3 763c fcc6 493d 7b49 a1bc b5bf 813d
00000060: e29e 6a3d f103 c2bc 0802 ef3c 9087 5e3a
00000070: d346 a23d 689c 893d 0322 71bd 678a 323b
00000080: f625 2b3d d763 8a3d 2839 f73c 1ed6 193d
00000090: 85b0 85bc 14ae 013c cb4e 87bd 434c 8f3d
000000a0: af8a 8e3d dbee 5fbd 4b16 a7bd 3a13 813d
000000b0: 6258 acbd 95c2 503d ee51 b0bd f3ee 50bd
000000c0: 4a0f 31bd a2fe 9d3d eacf aabc 1725 9c3d
000000d0: 0460 d23c 515e af3d a2cb 6f3d 9228 923d
000000e0: df9e 913d 6698 02bd ec14 c7bc a7df b83c
000000f0: 3cd6 aa3d 95b1 d3bc c9ad 9abd d1d6 99bd
00000100: 47d6 3fbd 8c78 093c e16f 83bc 7f98 f1bc
00000110: 9f1f 41bd 2595 eb3c d51b 95bd e559 be3d
00000120: f845 60bc d8de 2b3c a423 be3c b7dd 0cbd
00000130: 025c 9b3d 00bb 2bba a098 ed3b b47e b8bd
00000140: e23a a53b 0616 c83c d2d0 df3b cacf 71bc
00000150: bfaf 883d 5d1d 8f3d f23f 793d 1858 7bbc
00000160: 3029 7a3c 34c8 7cbd ca84 87bd 7a99 15bc
00000170: 00de 213c 970c 6bbd 6ecf 8abd b665 0c3d
00000180: b25d 043d 2cb6 83bd f2e9 703d ab74 93bd
00000190: a28b 793d b254 403d dab6 f4bc 7b2f a03d
000001a0: 22d9 63bd 55db 3cbd 9347 903d d894 babc
000001b0: 2639 12bd a013 603c e8b3 74bc b7e3 4b3d
000001c0: e1a9 873d 7975 083d 4498 9c3c e680 e93c
000001d0: 40d0 163b 1811 2a3c 40fe db3a 5059 5e3d
000001e0: 2de1 313d a7e4 73bc 20b7 083d 411a 5eba
000001f0: 4471 d03c 287e 883d 3644 87bd 0bca d73b
00000200: 48a3 96bc 3b15 bcbd 99e6 afbd a435 b6bb
00000210: baf1 8d3d 6427 56bd 568c 0e3d 3ea9 503d
00000220: 02f1 83bd 534c 343d 6ca8 883c 936a 98bd
00000230: c0be deba 8c8b 9dbd 2c8c aa3d d53a 423d
00000240: 64b8 0a3d d141 973d 0934 803d e516 c03d
00000250: d77e 043d 8995 6cbd 6e86 b43d e040 fa3c
00000260: 31b7 0ebd c5e3 dbbc 86c2 9f3d 393b d23c
00000270: 296f 733d c0e1 e13b b336 a73d 7034 70bd
00000280: d712 de3c 34c7 ac3c 809d 85ba b707 a13d
00000290: 4067 913c 40e5 9c3b 4ef3 873d 69c2 74ba
000002a0: 1022 bbbb 8ef6 9ebd 1c84 d9bb 4fce 41bd
000002b0: c64d 6a3d 74c2 a93d e1e0 a8bd 0ae1 38bd
000002c0: d5aa ba3d 8ff7 01bd e344 ad3d a739 b23d
000002d0: e896 b5bc 9e88 92bd b606 353d 7659 3d3d
000002e0: a58a 933d 11c3 dd3b cedb 443d 0fef 8ebd
000002f0: 2094 473c 05c3 db3c 1c5e 4a3d 30ec 28bd
00000300: 5199 95bb 8901 3fbd 7add 5abd 52d2 053d
00000310: 4841 8b3c af0a ef3c 80e7 03bb bad0 05bc
00000320: e06a 5ebb 283b 313d c0c2 61bd dc15 9c3c
00000330: dc26 303d 9efa 513d 1fbc 2dbd 4b98 983d
00000340: a783 58bd 5a0b 243d 21ca 873d 99f2 103c
00000350: fcd3 dd3c c07b abbd 3635 0fbd f73d 0ebd
00000360: 0489 a8bd 4455 99bc 06bf 7c3d 2a07 20bb
00000370: 15e1 b23d efc9 acbd 51af ef3c f7ce a83d
00000380: 7df1 af3d ef10 20bd dc71 a3bd f2ff d8bc
00000390: 2c7f 733d f0c3 fd3b af04 ad3d 3f9a 6fbd
000003a0: b06a 7bbd de45 513d 6845 f83c b035 6bbd
000003b0: bf67 a83d f39f 0bbd ee71 96bd 6f41 a43c
000003c0: a30d 32bd 6684 13bd 933f 4abd 5d85 a43c
000003d0: e29c 293d a67e 733d a2dd 4cbd 8839 a9bc
000003e0: 1083 9e3d 9ae2 52bd 26dd 02bd b8c5 b3bc
000003f0: 0103 94bd 98ca 72bd 0da6 ad3d 2237 b73c
0.050104015 0.057620782 0.015511915 0.0789812 -0.08209168 0.034986574 -0.033911183 0.0043653473
0.060960375 -0.069255784 0.038734622 -0.023564273 0.057171382 -0.008234637 0.04135995 0.09098428
-0.031559065 -0.09300335 0.07744649 -0.054553695 0.015068847 0.049262032 -0.019688359 0.06335393
0.05728043 -0.02368352 0.029175773 0.00084888283 0.07923665 0.06719285 -0.058870327 0.0027243139
0.04178425 0.06757324 0.030178621 0.037557714 -0.016319523 0.007915039 -0.066068254 0.06996968
0.069600455 -0.05467115 -0.08158549 0.06302495 -0.08415295 0.050966818 -0.08609377 -0.05100913
-0.04322747 0.07714583 -0.020851094 0.07624262 0.02568055 0.08562911 0.05854381 0.071366444
0.071103804 -0.03188362 -0.024301969 0.022567583 0.08341643 -0.025841514 -0.07552678 -0.07511676
-0.04683521 0.008390557 -0.016044559 -0.029491661 -0.047149297 0.028757641 -0.07280699 0.0929449
-0.013688557 0.010490142 0.023210354 -0.03439113 0.075859085 -0.00065509975 0.0072508603 -0.09008542
0.00504242 0.024424564 0.0068303132 -0.014759013 0.06674146 0.069880225 0.060852 -0.015340827
0.015268609 -0.061714366 -0.066171244 -0.00913083 0.009879589 -0.057385053 -0.06777845 0.034276687
0.032315917 -0.06431231 0.058816858 -0.07199987 0.06092418 0.04695577 -0.029872347 0.07821556
-0.055626996 -0.04610761 0.07044902 -0.022776052 -0.035699032 0.013676554 -0.014935471 0.049777713
0.06624199 0.033315156 0.019115575 0.028503846 0.002301231 0.010380052 0.0016784146 0.054284394
0.043427635 -0.014886058 0.033377767 -0.000847254 0.025444634 0.066646874 -0.06604807 0.0065853647
-0.018388405 -0.09183737 -0.08588905 -0.0055605937 0.06930871 -0.05228366 0.034801804 0.050942652
-0.06442453 0.0440181 0.016681872 -0.074422024 -0.0016994104 -0.07692632 0.08327517 0.047419388
0.033867255 0.073856 0.06259925 0.09379367 0.032347526 -0.057759795 0.08814703 0.030548513
-0.034842674 -0.026842007 0.07800774 0.025663005 0.059432182 0.0068933666 0.0816473 -0.05864376
0.027108593 0.021091081 -0.0010194033 0.078627996 0.017749429 0.004788071 0.066382036 -0.00093368307
-0.0057108477 -0.0776187 -0.006638063 -0.04731589 0.057203077 0.08289042 -0.08246017 -0.04513649
0.09114615 -0.03173023 0.08460405 0.087024026 -0.022166684 -0.07154964 0.044195853 0.046227895
0.07204179 0.0067676385 0.048061185 -0.069791906 0.012181312 0.026826391 0.049406156 -0.04124087
-0.004565396 -0.046632323 -0.053433873 0.03267128 0.016998902 0.029179899 -0.0020126998 -0.00816744
-0.0033938214 0.043269306 -0.05511737 0.019053392 0.04300581 0.051264398 -0.042415734 0.074509226
-0.05285993 0.04004989 0.0663035 0.008846902 0.027078621 -0.08373213 -0.034962855 -0.034727063
-0.08229259 -0.018717416 0.06170561 -0.0024418333 0.08734337 -0.08436953 0.029258402 0.082426004
0.08590982 -0.03907865 -0.07980701 -0.026489232 0.059447452 0.007744305 0.08448159 -0.05849671
-0.061381042 0.05109202 0.030306533 -0.057424247 0.08222913 -0.034088086 -0.07345949 0.020050732
-0.043470036 -0.036014937 -0.049377035 0.020083124 0.04140938 0.059446953 -0.050016053 -0.020657316
0.07739842 -0.051485635 -0.031949185 -0.021944866 -0.072271354 -0.05927524 0.08478937 0.022365157

model.3.bias f4 [64]
00000000: cc9f 22bd 4f43 533d e57c 3c3d fe75 d93c
00000010: fbfd 173d 9251 a93d 6f07 303d ddd4 063d
00000020: 0f3f 8ebd ee36 62bc 71e5 7ebb 4e32 813d
00000030: a4a8 323d 764b 993d be75 7f3d db8f 2bbd
00000040: 55dc 973c 8825 b93d 932c 183d 06af 5d3d
00000050: a8b2 2b3d f185 b2bc cc8e 4f3c 6143 89bd
00000060: bfc8 9a3d cf22 343c 2294 983d fad0 8bbd
00000070: 7982 b3bd c0b8 853c 0570 aebb 15e2 f3bc
00000080: 6227 563d f60a 82bd cb5a 923d b7f4 bcbd
00000090: 1a95 c53c 711c 3bbd ced7 cd3c 2692 a63d
000000a0: 2800 36bc b069 d93c ed79 0ebd 5881 21bd
000000b0: cde9 a6bd 20df 683d 2c5d e3bb 7899 c93c
000000c0: c7d2 7ebd 5af8 a2bd c932 9abd 8252 67bd
000000d0: 0d15 b4bb 8e01 9dbc 6c9d 063d 9592 46bd
000000e0: fb61 b03d 6655 0bbd d843 9ebd e25f 793d
000000f0: 7271 83bd 2135 6d3a 234d 69bc 5e3a 43bc
-0.039703175 0.051577862 0.046017546 0.02654552 0.03710745 0.082675114 0.04297584 0.032917846
-0.06945621 -0.013807042 -0.0038894082 0.06308423 0.04361786 0.07485096 0.062368147 -0.04188524
0.01853768 0.09040362 0.037151884 0.054121993 0.041918427 -0.021792384 0.012668323 -0.06702305
0.075578205 0.010994627 0.07450129 -0.068269685 -0.0876512 0.016323447 -0.0053234124 -0.02977089
0.052283652 -0.06349747 0.07146224 -0.09226363 0.024118949 -0.04568142 0.025127318 0.08133344
-0.011108436 0.026539654 -0.034784246 -0.039429992 -0.08150063 0.056853414 -0.006938597 0.024609312
-0.06221273 -0.079575256 -0.07529218 -0.05647517 -0.0054956735 -0.01916578 0.032864973 -0.048479635
0.08612438 -0.03401699 -0.07727784 0.060882457 -0.06418122 0.00090487493 -0.014239582 -0.011915771

model.6.weight f4 [32, 64]
00000000: 4944 b3bb a6bd fbbd 81d5 da3d 8e30 a6bd
00000010: e215 9c3d 73bf a2bd 8d27 fcbc 40bd 41bb
00000020: 5ccd 49bd 3cd0 5dbd b47b d7bd 74d4 afbd
00000030: 630d 3bbc f468 2cbd 68ce 8fbc 789c 023d
00000040: 0047 83bc e256 f2bd bc4d 3cbd 16f9 053d
00000050: e444 383d dcc2 773d eed2 e23b 9005 af3d
00000060: b78d babd c4d5 d6bd 2883 08bd 00fc 5c3a
00000070: d0df b93d 9000 9fbd 8a4a b3bd 3f5d 12bc
00000080: b3ec d63c e47d e9bd f863 4ebd 6978 d4bd
00000090: 3fd2 c13c ad0d 3f3c 4ca5 e3bd 4dd6 b5bd
000000a0: c067 bd3b d8ac 07bd e401 c6bd cfe3 31bd
000000b0: 1a1b ebbd e667 a2bc 84d6 a4bc a0b4 d63b
000000c0: cf19 a63b b55d b2bc aeed c03d ad0d 4ebd
000000d0: 1861 673d ac90 2a3d 0c06 7bbc 5e9b bbbd
000000e0: 1ab5 d7bd 6ff8 ed3c 5c89 1c3d 0244 9b3d
000000f0: 54a2 62bd e851 c33d 1699 f43d ba59 d0bc
00000100: 6364 2fbd 5543 08bd 58a3 d2bd 0dde 9f3d
00000110: 6762 a03c cd39 823d b19a b03d 006f 59bd
00000120: 85a7 ea3b eef2 ce3d a72b b9bd d408 ed3d
00000130: 0066 913d a0bd 3dbd 86bd c4bd 78bc 883d
00000140: fe6c 863d 411d 50bd 9219 863d 9f23 303d
00000150: 92f4 033e 16f3 823d e925 cf3c 5532 f1bd
00000160: e1a1 dc3d 87ec e73d dfb2 eabc 9f76 77bb
00000170: c318 423a 0620 dfba 6e73 973d 30fb ba3c
00000180: 0996 d9bd 28bb 243d 82f8 90bd 9c93 2a3d
00000190: f66f 773d 8be8 5bbd 15c0 b83d 0b97 163c
000001a0: d2c1 80bd ffa4 e73d 2e95 a33d dfe9 ae3d
000001b0: 7bfa a3bd bff9 d1bd 2ed9 d4bd 4a83 a53d
000001c0: 2a97 a13d 2ec4 8fbd 7410 613d bfde fe3c
000001d0: d583 72bd 69d6 203c bb28 8ebd 18aa fabc
000001e0: 9072 4a3d 9388 c13c ae46 b2bd 716b 193d
000001f0: d056 ccbc a5c6 afbd 6312 e1bd cc14 3a3c
00000200: ac68 bcbd fc7c 9cbd 98bf f63c 2091 fc3b
00000210: 18cd 67bd 48bf 9e3c 1af7 803d d4b4 45bd
00000220: 4899 36bd 48d1 b43c e87a fa3c 7cf6 303d
00000230: 3e56 ae3d 70e5 08bc 7c16 2a3d ce4f 93bd
00000240: 7094 82bc 00a3 bd3d 92ff f7bd 0866 a8bd
00000250: 0e4b ddbd d200 d53d f037 67bc a076 ea3d
00000260: c6fa 89bd 243a 0bbd ccc5 a43d 74f8 febd
00000270: 9a7d f9bd 4c6f abbd 0062 0b3b d683 ebbd
00000280: 0899 bd3c da80 d83d 808e cfbc 004c b4bc
00000290: 704b e1bd 6875 d8bc 4063 293c 909e d13c
000002a0: 749a 28bd 0a71 9cbd b21e 86bd 5884 b03d
000002b0: 7a44 8bbd 8038 1f3c c0fc b3bc 04e0 4dbd
000002c0: 60ed b0bb 2281 c13d 96d5 c13d b8e4 d5bc
000002d0: b0f6 cdbc b466 8fbd e024 6ebd d8eb aebc
000002e0: a4f5 bd3d 78e1 913c 061b dbbd 489c 03bd
000002f0: f427 ddbd 9e93 ec3d 409c 3d3c c4f3 01bd
00000300: 81bd 353d 6b46 fcbd 73b0 3dbd bc2c ba3b
00000310: a479 ac3d b1da cd3d cbfb 25bc c29d f3bd
00000320: 7d64 953c 3915 84bd 5db5 da3d 64cd 21bd
00000330: 989e 20bd 092b c2bc 24fe e03d 2451 763d
00000340: 14d4 bcbd d402 843c 0e5a 0a3d 768b 12bd
00000350: 9520 123d 4581 d9bd b93a 90bd a955 973d
00000360: bcef e13d fe97 0a3d 1e6d 9bbd 6a82 223d
00000370: e9aa 9cbd f92f d9bd 9c3a b5bd 16f4 90bc
00000380: b169 a93c 40c7 7a3c 9447 f73d 8a10 70bc
00000390: 0679 df3d a68a cabd 760e 90bd e6d3 373c
000003a0: cca8 a43d 17d9 fe3c a40b fb3d 785d 94bd
000003b0: e24a e33d 6b27 0b3d dcd8 dd3c 8006 52bb
000003c0: c586 c4bd fe55 793d 60b2 ae3c f798 a43d
000003d0: fcad c83d 8f59 d7bd 03dc e03d 6b84 0ebd
000003e0: e481 abbd ce5b d33d 13ca d2bc 587a 6f3c
000003f0: b57a db3c e763 84bd 3a82 963d 7161 2a3d
-0.0054707867 -0.12292032 0.10685254 -0.0811473 0.07621361 -0.07946672 -0.030780578 -0.0029562265
-0.04926811 -0.054153666 -0.105216414 -0.08585444 -0.011416766 -0.04209228 -0.017554477 0.0318875
-0.016025066 -0.11832978 -0.04597257 0.03270825 0.044987574 0.060488567 0.0069221174 0.08545983
-0.09109061 -0.10489991 -0.033328205 0.0008429885 0.09075892 -0.07763779 -0.087544516 -0.008933364
0.026235914 -0.11400965 -0.050388306 -0.10374529 0.023659823 0.011660975 -0.11115512 -0.08878765
0.00578019 -0.03312382 -0.09668329 -0.043430146 -0.114797786 -0.019824933 -0.02012182 0.006552294
0.0050689946 -0.021773199 0.09420334 -0.05030601 0.05648908 0.041641876 -0.015321266 -0.09160493
-0.10532589 0.029049126 0.038216934 0.07581331 -0.05533059 0.09537107 0.11943261 -0.02543341
-0.042820346 -0.033267338 -0.102850616 0.07806025 0.019578172 0.06358681 0.08623255 -0.053084373
0.007161083 0.10104929 -0.09041529 0.115739495 0.07099533 -0.04632342 -0.09606461 0.066765726
0.06563757 -0.05080915 0.06547846 0.04300272 0.12886265 0.06394021 0.025286632 -0.11777178
0.107730635 0.11324411 -0.028649746 -0.0037759913 0.00074042025 -0.0017023094 0.07395063 0.022824854
-0.1062432 0.04021755 -0.07078649 0.041644678 0.06040951 -0.053688567 0.09021012 0.009191285
-0.06286968 0.113107674 0.07987438 0.08540701 -0.0800676 -0.102527134 -0.10392986 0.08081682
0.078901604 -0.0701984 0.05494733 0.031112073 -0.059207756 0.009816744 -0.069413625 -0.030598685
0.04942566 0.023624694 -0.08704887 0.03745598 -0.02494374 -0.0858281 -0.10989835 0.011357497
-0.09199652 -0.076410264 0.030120656 0.00770773 -0.056592077 0.01937832 0.06297131 -0.048268154
-0.044579774 0.02207245 0.030576184 0.043203816 0.08512543 -0.008355483 0.04152535 -0.07192956
-0.015939921 0.092596054 -0.12109293 -0.08222586 -0.10805331 0.10400547 -0.014112458 0.11448407
-0.06737284 -0.033990994 0.08045539 -0.124497324 -0.1218216 -0.083708376 0.002126813 -0.11499755
0.02314426 0.105714515 -0.025336504 -0.022008896 -0.11000717 -0.026423171 0.010338604 0.025588304
-0.041162923 -0.07638748 -0.065488234 0.086189926 -0.0680017 0.0097180605 -0.021971107 -0.050262466
-0.005399391 0.09448458 0.094645664 -0.026110038 -0.025142044 -0.07002011 -0.058140635 -0.021352693
0.09275368 0.017807707 -0.10698514 -0.032131463 -0.10798636 0.11551593 0.011572897 -0.031726614
0.044370178 -0.12318119 -0.046310853 0.0056816023 0.084216386 0.10051478 -0.010130833 -0.11895324
0.018236393 -0.064493604 0.106791236 -0.039502516 -0.039213747 -0.023702161 0.109859735 0.060135975
-0.09220138 0.01611463 0.03377729 -0.03577753 0.035675604 -0.10620359 -0.070424505 0.07389385
0.11032054 0.033836357 -0.07589172 0.039675154 -0.07649786 -0.10604853 -0.088490695 -0.017694514
0.02068028 0.015306294 0.12074199 -0.014652381 0.10911755 -0.09889726 -0.07034008 0.011219954
0.08040008 0.031109376 0.1225808 -0.0724439 0.11098267 0.03397314 0.027080946 -0.0032047331
-0.09596018 0.060873024 0.02132529 0.08036988 0.0979881 -0.10515129 0.10979464 -0.034794252
-0.08374384 0.10320245 -0.025731122 0.014616571 0.02679191 -0.06464367 0.073490575 0.041596834

model.6.bias f4 [32]
00000000: 75de 953d 13de 60ba 0001 393a 8434 c9bc
00000010: 2c06 713b 4b5d afbd 78a5 653d 47ea f73d
00000020: 528a 8c3d be32 593d da45 f43d deab be3d
00000030: 8ffc bd3c bb24 b63d cf84 be3d 6ea0 9f3c
00000040: 6aff 13bd 5d57 a3bd cfea 24bd 71c4 093d
00000050: 08b7 c7bd a42c debd 4447 58bc 6dfb 753c
00000060: b23c b03d b665 db3d f125 c3bd 47fe fd3b
00000070: 46df adbd d5eb bf3b a74d ddbd 9b91 dabd
0.07317821 -0.00085780135 0.0007057339 -0.024561174 0.003677736 -0.08562716 0.056066006 0.12105232
0.0686232 0.053026907 0.11927386 0.09310125 0.023191718 0.088937245 0.09302675 0.019485679
-0.036132254 -0.079756476 -0.040262993 0.033634607 -0.09751707 -0.10848358 -0.013200585 0.015013558
0.08605327 0.10712759 -0.09528721 0.0077512595 -0.08489852 0.005856971 -0.10805827 -0.10672303

model.8.weight f4 [1, 32]
00000000: 49a3 323b 242e fd3d e153 2dbe 58ca 1cbe
00000010: b52c d73c 7b11 353e 0ff1 36bd 6cd9 2c3e
00000020: 0b69 2f3e 74aa 91bd c3a3 5f3d 397b eb3d
00000030: cc88 18be 0e4e 9c3d 673c a23d 3705 b23b
00000040: 91a9 2cbe 0cd5 b3bc 38a4 03be f0e4 ad3b
00000050: 0059 993b 5f3e cfbd 0d2f 243e 077d e0bd
00000060: d3e5 f63d 564c f33d 31f0 2c3e 6676 6c3d
00000070: d59e fc3d 5f17 63bd 3005 6b3d 3f50 2a3e
0.002725797 0.12362316 -0.16926529 -0.15311563 0.026266435 0.1768245 -0.044663485 0.16879815
0.17129914 -0.071125895 0.054599535 0.11498112 -0.14895934 0.07632075 0.07921677 0.0054327506
-0.1686156 -0.021952175 -0.12855613 0.0053068325 0.004679799 -0.10119318 0.16033573 -0.10961347
0.12055554 0.11879794 0.16888501 0.0577301 0.12334982 -0.05544221 0.057377994 0.16632174
